DAY10/model_save.pth (torch, 9423 bytes, 14 tensors)

layer1.linear.0.weight f4 [16, 4]
00000000: 2ee1 b0bc 16d7 153e b5ce 10be d7f7 a33e
00000010: f033 843e 4a19 04be bedd 893e 88c5 3c3e
00000020: 070b dfbe 094c aabd 8e6d 993e 0e3a 093f
00000030: b626 e1bd f7ef 89bd 9d68 843e abb4 ec3e
00000040: 7ebd aebe a53a bbbe 3d37 c53e 22af 863e
00000050: 3932 a03e b4e7 4cbf ae43 6cbe 9f36 7a3e
00000060: 81e9 c93e 3ae0 bfbe 6dd2 0ebf 41e9 8dbe
00000070: 5cc9 c4be 684d 54be ed0c b23e 7adb 7fbe
00000080: dedc 153f 104c f1bd 952a b5be 8684 febd
00000090: c0f3 94be 0b84 8a3d a67f 623d a60f f7be
000000a0: d513 85bd 3fe6 eabe edc6 c9be 29d7 02bf
000000b0: 52dd 923d 59ab e2be 7723 cebe 765b e0bd
000000c0: 3be0 f7bc 6356 173e 1a50 bfbd 3bf3 cbbe
000000d0: 90cc 993e 11c5 93be 4674 0fbf 0e83 e3be
000000e0: ab6f a2bd ff42 c23e 37d9 01be 9621 723e
000000f0: 86ff 093b dcc9 0a3e 047b f63d 4f0b 373f
-0.021591749 0.1463283 -0.14141352 0.32025024 0.25820875 -0.12900272 0.26926988 0.18434727
-0.435631 -0.08315284 0.29966396 0.5360421 -0.10993712 -0.06735223 0.25861064 0.4623159
-0.34128946 -0.3656818 0.38518706 0.2630549 0.31288317 -0.8004105 -0.23072693 0.24434899
0.39435962 -0.3747576 -0.55789834 -0.2771702 -0.38434875 -0.20732653 0.34775487 -0.24986067
0.5854014 -0.11782086 -0.3538405 -0.124276206 -0.29092216 0.067634664 0.055297516 -0.48254126
-0.06497923 -0.4587879 -0.3940958 -0.5110956 0.0717112 -0.44271353 -0.40261433 -0.10954945
-0.030258289 0.14779048 -0.0934145 -0.39834008 0.3003888 -0.28861287 -0.56036794 -0.44435924
-0.07931455 0.3794174 -0.12680517 0.23645625 0.0021056845 0.13553566 0.12035182 0.7150163

layer1.linear.0.bias f4 [16]
00000000: e501 31be cf97 d9be 8dc9 8c3e 24be 003e
00000010: 4ecd f4be b321 f73d 9ec4 61be c452 2b3e
00000020: cb68 5d3e eab8 283f 82d4 7abd e0e2 a9bd
00000030: c147 013f 1a73 5bbe aa3e 84be 562b dbbc
-0.17285879 -0.42498633 0.2749752 0.12572533 -0.47812885 0.120669745 -0.2204766 0.16730791
0.21622007 0.65907156 -0.06123782 -0.08295226 0.5050011 -0.21430627 -0.2582906 -0.026754063

layer1.linear.1.weight f4 [16]
00000000: 747d 8f3f 4d07 623f 9485 793f 2d6b 853f
00000010: c8f2 713f f7cd 5f3f 6c68 633f 8720 793f
00000020: 83f2 6b3f e8c9 7f3f 390e 543f a990 5c3f
00000030: 6dd9 813f 08f6 893f 77f6 893f 9ecb 563f
1.121016 0.8829239 0.9746945 1.0423332 0.9451108 0.8742365 0.8883121 0.9731526
0.9216692 0.9991746 0.828342 0.86158234 1.0144478 1.0778208 1.077834 0.83904445

layer1.linear.1.bias f4 [16]
00000000: eb25 30bd 9489 adbe 25e5 d3be 11b6 babe
00000010: dd8b c3be 75fb 203e a066 87be 23ee cfbc
00000020: 84d7 a8bd f99a 8dbe e0e1 e4be b265 93be
00000030: aabb aabe 867c c3be eb56 053e a0fc c7be
-0.04300491 -0.33894026 -0.4138576 -0.3646703 -0.38192645 0.15720923 -0.26445484 -0.025382107
-0.08244231 -0.27657297 -0.4470358 -0.28788525 -0.333463 -0.3818094 0.13021438 -0.39059925

layer1.linear.1.running_mean f4 [16]
00000000: c01f 973c ab90 f43f e5f2 4fbf 6f64 4a3f
00000010: 6047 f1bf 22e4 90bf 9879 bdbf b0a4 e1bf
00000020: c32f ee3f 70b4 97bf 8477 7cc0 e5b2 29c0
00000030: 4a72 7bbc 400e fabf 9b10 8a3e 2e0b db3f
0.018447757 1.9106649 -0.8123 0.790595 -1.8849907 -1.1319621 -1.4802732 -1.7628384
1.8608326 -1.185194 -3.9447947 -2.6515439 -0.015347073 -1.9535599 0.26965794 1.7112787

layer1.linear.1.running_var f4 [16]
00000000: c226 4a3c e0eb 3d3f 2d48 e63e f706 133f
00000010: 998a 0f3f ff5a 9b3d 0128 3d3f e156 ac3d
00000020: 9c4a f13d 26c3 8e3e dbde 973f c18e f43e
00000030: 98dd 8d3e 6a18 943f 2a1c 653d d099 113f
0.012338342 0.7418804 0.4497694 0.574325 0.5607086 0.075857155 0.73889166 0.08415008
0.11781809 0.2788326 1.1864885 0.47765163 0.27708125 1.156995 0.055935062 0.56875324

layer2.linear.0.weight f4 [32, 16]
00000000: c22d 343d 0d86 71be 778c 19bf 5109 cdbe
00000010: e1a5 a7be 06c0 f43b 6c08 903d a8cf 68bd
00000020: dc63 dabc 2d9f 2f3b 7302 d73d 003f b33d
00000030: c7d8 c23d 584c 963d f40f 7bbd e4b6 7fbe
00000040: 5684 bb3e c745 513e a693 7c3e 5d09 463e
00000050: 6155 05be 447b 05be 28ef 1a3e ea3a 93be
00000060: 1259 6f3e 954e 34be 192d de3d f9a3 1d3c
00000070: eafa 01be 8034 03be d044 b13e 57ef 9bbc
00000080: a629 96bd dbbd ad3e 1377 183e 530a 293e
00000090: b470 193f 3482 cd3d 589d 8a3d 8d22 193e
000000a0: ad6a aa39 7e5e 14be c6b7 cb3d e223 7d3d
000000b0: 9e04 05be f3c7 3f3c b10a 0ebd 3944 a83e
000000c0: 6c7d 7cbe c7bf a1bd ef14 04bd 1f78 273a
000000d0: 1cab 5f3d c328 4abd ed6f b43d 1de2 d3bc
000000e0: 97d6 463e bf04 243e 3106 b43e e92c 1a3e
000000f0: fcc4 453e c3a6 5b3e 9a41 26be a215 15bd
00000100: 0cd4 82bb 3e93 023e 27bb 2d3e d9aa 123d
00000110: c387 5abc 5d6c 493c 2f1c 97be b018 8d3d
00000120: d2f4 0abe 1bd2 70be f140 99be ad2b 94be
00000130: f926 a2be 5944 0cbf 54ed 44bd bf80 853e
00000140: f282 81bd 1bfe 683e 4365 293e b813 b93d
00000150: 5deb fe3d 911f 0f3c a30a 46bd f64b 93bd
00000160: 81a5 9e3d b447 83be 338e cbbe 7905 9cbe
00000170: d54d 8bbe 5735 bebd 05a2 2ebc e596 2d3e
00000180: 8d83 69be 3b67 aa3d 6027 75be a86d a4bb
00000190: 8e8e d93c 1c6a 253e d31c 6f3e 8530 9ebe
000001a0: 6f62 7f3e bd8e 29be 0363 9dbd 6fde aa3e
000001b0: 5f73 c33d 0331 803e 4f2d b4bd 423c ed3b
000001c0: af65 ea3d fbf8 c53e f12d 743e 824e ea3d
000001d0: 05aa 413e bff8 1b3e cf56 d03d 73a1 853d
000001e0: bb2d 193e c5e5 013d 3602 08ba 1128 67be
000001f0: 2304 43be 251f 0dbd 740c 24be 4a31 463e
00000200: 5fc9 a8be ba7f 55be 9de2 57be 290b f1be
00000210: 3c6b c3bd ab68 163e be71 093e 0477 9dbb
00000220: 1483 c13c 947c 7e3d 0771 543e dbbf 6c3d
00000230: ae57 5e3e 6b9a ae3d 40ee 5ebd a8ac c4be
00000240: 7224 75be 721e c4bd 8a8f e2be b329 cdbe
00000250: e3b6 bdbe 63e0 cdbc 78e4 5d3e 09a6 c63b
00000260: 3859 393e 5628 a7bd 0935 1d3e 3294 4ebc
00000270: e904 12be fed9 163e 02f0 1b3d 84c2 70bc
00000280: 39be ab3e 9339 373d 64f6 16be 7b5c a83e
00000290: da74 00bd 8fa3 2abe 3431 63bd 67d0 f6be
000002a0: 9c7d 583e ca16 633d 721a 38bd 34e0 183e
000002b0: 63e1 e1bb 7e4e 03bd a589 88bc f29c 443e
000002c0: daf6 3a3e 9647 1b3d 8097 94be 110a 57be
000002d0: 1bb3 16be 2ab2 62be 1902 873e dfd4 2abc
000002e0: 28f9 863e f2b9 c53d 603b 56bd b82d 823e
000002f0: c44a 763e 9c77 903e e9c6 b13c 6693 7ebe
00000300: 5067 09be c90e 983e 0637 793e 9228 8f3e
00000310: d956 8abd a990 3a3e 157d 483e 772d 103e
00000320: 8fab 86be c32c e83d 88bf 973d b168 493e
00000330: e796 193e c353 2c3e ffc2 75be fd25 f63d
00000340: a52d 003c d021 963d ea33 7c3c a3ef 0f3e
00000350: d5c9 21bc 517d 993d b1ec bebe 8890 883d
00000360: 8200 eabd 25e8 d2be 4487 0bbe ddfa fcbd
00000370: 39d1 f9be 4ea0 90be 26cb ac3d fafb 9b3d
00000380: 44de 99be dfbf 21be 443c 11be 6a0a 9abe
00000390: 11a8 81be 421b a03c b3e7 d2bd 8281 a5bd
000003a0: f1a4 a03d c9f9 33be 0ca0 66bb 9dc5 49be
000003b0: b86f 7c3c 24e2 ff3d fc88 febd a5d3 e7bd
000003c0: 6424 5e3e d488 b83d 9005 ea3d b397 f03d
000003d0: 8575 403e 68ff c1be fa3e 1dbd 6fb5 47be
000003e0: eb5c 103e 50ba a83d 9566 f4bb ede0 cfbd
000003f0: 655f 7c3d 0d2c 80bd 80ca 5f3e 3428 8bbd
0.04398895 -0.23586293 -0.5997996 -0.4004617 -0.32743743 0.00746918 0.07032856 -0.05683866
-0.026658945 0.0026797757 0.10498514 0.08752251 0.09514003 0.0733878 -0.06129451 -0.24972111
0.36624402 0.20436774 0.24665698 0.1933951 -0.1302085 -0.13035303 0.15130293 -0.28755885
0.23373821 -0.17608102 0.108484454 0.009621614 -0.12693372 -0.12812996 0.34622812 -0.019035025
-0.073321626 0.3393391 0.14889173 0.16507845 0.59937596 0.100346 0.06768292 0.14954586
0.00032504406 -0.14489171 0.099471614 0.0618018 -0.12990043 0.011705386 -0.034678165 0.3286455
-0.2465722 -0.07897907 -0.032246526 0.0006388444 0.054606542 -0.04935528 0.08810411 -0.025864655
0.19417797 0.16017435 0.35160974 0.15056194 0.19313425 0.21450333 -0.16235963 -0.036397584
-0.003992563 0.12751481 0.16965924 0.035807464 -0.013338032 0.012293902 -0.2951369 0.068894744
-0.13569954 -0.23517649 -0.2993236 -0.28939572 -0.3167036 -0.5479179 -0.048077896 0.26074788
-0.06323804 0.22753184 0.16542535 0.09036964 0.12447236 0.008735553 -0.048349988 -0.07192223
0.07746411 -0.25640643 -0.39756927 -0.30472925 -0.2720782 -0.092875175 -0.010658746 0.16952093
-0.22804089 0.08320471 -0.23940802 -0.005017955 0.026557233 0.16153759 0.2335084 -0.30896392
0.24939893 -0.16558357 -0.076849006 0.33372828 0.0954349 0.25037393 -0.087977044 0.0072398493
0.11445176 0.3866652 0.2384565 0.114407554 0.18912514 0.15231608 0.101728074 0.065249346
0.14958851 0.031713266 -0.0005188318 -0.22573878 -0.19044547 -0.03445353 -0.16020375 0.1935474
-0.32966134 -0.20849505 -0.2108254 -0.47078827 -0.09541938 0.14688365 0.13422295 -0.0048054475
0.023622073 0.062130526 0.20746242 0.057800155 0.21713135 0.08525547 -0.05442643 -0.38412976
-0.23939684 -0.095761195 -0.44250137 -0.40070876 -0.37053594 -0.02513141 0.21669185 0.0060622734
0.1810044 -0.0816199 0.15352263 -0.012608575 -0.14259686 0.14731595 0.038070686 -0.014694814
0.33543566 0.04473264 -0.14742428 0.32883057 -0.03136144 -0.16663955 -0.055466846 -0.48205873
0.21141666 0.055441655 -0.044947095 0.14929277 -0.0068933233 -0.032057278 -0.016667197 0.19200495
0.18258229 0.037910067 -0.29021835 -0.20999934 -0.14716761 -0.22138277 0.26368788 -0.010426729
0.26361966 0.09654607 -0.05230272 0.25425506 0.24051958 0.28216255 0.021701293 -0.24860916
-0.13418317 0.2969878 0.24337396 0.2796064 -0.06754846 0.18219246 0.19578965 0.14079843
-0.26302764 0.113366626 0.074095786 0.19668843 0.14998971 0.16828828 -0.24000166 0.120189644
0.0078233825 0.07330668 0.015393237 0.14056258 -0.009874781 0.07494605 -0.37289956 0.06668192
-0.11425878 -0.41192737 -0.13625818 -0.12352536 -0.48792437 -0.28247303 0.08437185 0.0761642
-0.30052388 -0.1579585 -0.14183146 -0.3008607 -0.25323537 0.019544248 -0.10298099 -0.08081342
0.0784396 -0.17575754 -0.003519061 -0.1970429 0.015407495 0.12494305 -0.124284714 -0.11319665
0.2169357 0.09010473 0.11426842 0.11747684 0.1879483 -0.37890172 -0.038390137 -0.19502805
0.14097945 0.08238661 -0.007458518 -0.10150323 0.061614413 -0.06258402 0.21854591 -0.067947775

layer2.linear.0.bias f4 [32]
00000000: cf8b 7bbd 0077 303e 8115 403d 703c 84bb
00000010: 360c 733d dbfb 853e be41 55be 5cfc 40be
00000020: b7a1 56bc 1f15 5cbe a3bb c23d b4ea 563d
00000030: c32d 03be f175 f53d 907c 04bd becd 453c
00000040: 216a 8a3e 6b24 e1bd 4845 4c3e 989f 3dbe
00000050: 96d8 bd3d d3de 783e 317c 8fbd 4d62 1fbe
00000060: 60e6 6c3e 3f56 57be b243 95bd 35d1 8cbd
00000070: 6060 573d 8976 d63d 64db 50bd 2dd2 f4bd
-0.06141263 0.17232895 0.046895508 -0.004035525 0.059337817 0.26168713 -0.2082586 -0.18846267
-0.013100079 -0.21492432 0.09508445 0.052469924 -0.12810425 0.11985386 -0.032345355 0.012072979
0.27034095 -0.10993274 0.19948304 -0.18517911 0.09269826 0.2430375 -0.070061095 -0.15564843
0.23134756 -0.21028994 -0.072883025 -0.068758406 0.052582145 0.104718275 -0.050990477 -0.1195415

layer2.linear.1.weight f4 [32]
00000000: f61f 8c3f da73 823f 7e8a 873f c0d6 733f
00000010: 896f b83f 325e 8e3f b180 743f fb71 773f
00000020: b50e 943f 0cd1 783f c660 923f 1929 9e3f
00000030: bb3a 903f 966d 963f 24a4 843f 4911 913f
00000040: 3231 713f 8f80 ca3f 94f5 873f ece3 9a3f
00000050: 2d12 8e3f 63c7 a93f f771 893f 6623 8c3f
00000060: d359 9d3f 7414 733f a793 873f 4f4c 8d3f
00000070: 23c3 7a3f 1b4f 753f bfaf 803f 4933 763f
1.0947254 1.0191605 1.058914 0.9524956 1.4409038 1.1122496 0.9550887 0.96658295
1.1566988 0.9719398 1.1435783 1.2356292 1.1267923 1.1752193 1.0362592 1.13334
0.9421569 1.5820483 1.062182 1.2100806 1.1099297 1.3263973 1.0737904 1.0948303
1.2293037 0.94953084 1.0591935 1.1038913 0.97954005 0.9582383 1.0053633 0.96172005

layer2.linear.1.bias f4 [32]
00000000: 1cd3 bb3e 9b6c 6c3e 1679 223e 0691 803e
00000010: d14b f43e c3fa aa3e b041 d83d ec5e ff3d
00000020: 6a05 ba3e 4711 963e 2ab6 593e 16e1 353e
00000030: 5ffe dfbb ea8f 8c3e 6a4c 50be e8c3 893e
00000040: e8fe 273e fa89 0a3f 4c8f 293e b274 be3e
00000050: d79a 933e 1cad a23e 3888 a93e d9e2 613e
00000060: 7a5c b53e 61b9 7d3e 0475 333e 415b 0e3e
00000070: 9ee1 eb3d 9ff5 9d3e 7775 e23d 41c0 1b3e
0.366845 0.23088305 0.15866503 0.25110644 0.47714093 0.3339444 0.10559404 0.12469277
0.36332256 0.29310057 0.21260896 0.17761645 -0.0068357433 0.27453548 -0.2034165 0.26907277
0.16405833 0.54116786 0.1655857 0.37198406 0.2882907 0.31772697 0.3311174 0.22059192
0.35422117 0.24777748 0.17525107 0.13901998 0.115176424 0.30851457 0.11057561 0.15210058

layer2.linear.1.running_mean f4 [32]
00000000: 3154 cabe 3308 ea3e b6b7 ce3e 7c3d d13d
00000010: 0089 c5be 2aad 8d3d 9d12 49be d1bc f53d
00000020: 715c 75be ce89 f9be 4a7e 103e 4aed 873e
00000030: ddef 223e 081e 73be 9743 06bf 4853 d23d
00000040: 5bb1 bd3e acec f8be 8b3c 413e 374a f1be
00000050: 540d 7e3e 19f6 343e dacb e0bd 0884 08bf
00000060: 5c73 223e fc25 43be 6bc8 ecbd f65e c63d
00000070: 22fa 123e 2dd2 ad3c c674 5f3e 851f 2cbe
-0.39517358 0.4570938 0.40374535 0.10216805 -0.38581085 0.06917794 -0.19636007 0.119989045
-0.23961045 -0.4873795 0.14110675 0.26548225 0.15911813 -0.23741925 -0.52446884 0.10269791
0.37049374 -0.48618066 0.18870752 -0.47126934 0.24809772 0.17672004 -0.109763816 -0.53326464
0.15864319 -0.19057459 -0.11561664 0.09686081 0.1435323 0.021218384 0.2182189 -0.16808899

layer2.linear.1.running_var f4 [32]
00000000: f8e2 3f3f 6daa 1a3f 6fae 153f 3214 b23e
00000010: 25ca be3f 8483 1d3f 4af0 b13e 1bfc d13e
00000020: 0f25 363f cbd7 143f 9a7f 163f 4c0f 833f
00000030: b26a c73e 2ec3 773f 0631 a23e 4835 e43e
00000040: 9b83 373e a93a 7d3f 31d8 233f 7349 163f
00000050: 7e4f 883e df5c 753e 4fdd 203f b471 573f
00000060: 6811 2b3f d83d 8a3e 980a 843e 2c3b 1a3f
00000070: 6ae9 813e e87c 943e b63c d53e ca1d 1b3e
0.749557 0.604163 0.5846929 0.34781033 1.490544 0.615288 0.34753639 0.41012654
0.71150297 0.58141774 0.58788455 1.0239043 0.3894859 0.96782196 0.31678027 0.445719
0.17921297 0.98917633 0.64001757 0.58705825 0.26623148 0.23961209 0.6283769 0.8415787
0.66823435 0.27000308 0.25789332 0.6024654 0.25373393 0.29001546 0.4164788 0.15148082

output.linear.weight f4 [3, 32]
00000000: d159 8d3c 1031 2d3e 9891 29bd 8335 a43d
00000010: 3174 0abf 73a5 05bf 5084 393e 556a dfbd
00000020: bc2a 6e3e 8f58 f3ba 8182 743e 0cee 9f3d
00000030: 8892 aebe d2d9 e3be 1e97 b13d 8aef 1e3e
00000040: 5662 f73d 7f0c 08bf ae08 b8be ab41 00bf
00000050: eb19 bcbe 79c8 03bf 34e2 d53d c87f 6c3c
00000060: 0d79 613e d23a b3bc 5bc1 3a3e 46f7 c0be
00000070: 5b6c 503e 6881 f43d 182b 123e 3ec8 943d
00000080: b1c4 e23c db0a 81be 2cd9 25be 5c49 1fbe
00000090: 7520 9c3d 87a1 823d 1551 d6bc ebfa 69bd
000000a0: 5e7f fc3d 805f 66bd e8b0 1fbe b706 673e
000000b0: b106 c73d 262c f43d c94e f63d cb91 24be
000000c0: 1b44 24be b4c6 0f3e f432 fc3c c431 b23d
000000d0: 390f 83bd 0349 bcbd a6b0 e93d bf8d 12bd
000000e0: c3b6 793d 4260 0cbe 1dab ddbd 7466 973d
000000f0: f9d3 8bbd dbfb 18bc 146f 07be 0eeb 39be
00000100: 94ec d2be 17df 743d c344 f03d 2c84 debd
00000110: 102c 0c3d 4d8c 943d acf6 43bd 6ff8 063e
00000120: 9db2 56be d056 bbbe f8eb f83d d8e3 6dbe
00000130: 289c 313e f06d ea3c 3a90 4abe bff2 893d
00000140: 15c5 533d 13ce 023e dc3a d1bb 7708 cc3d
00000150: 9ff9 863d 0119 263c e110 6cbe 7b78 a8be
00000160: 9eae 6fbe 5a27 73be d036 893d 60d6 033d
00000170: 214e acbd c974 6ebe 5b14 c53d 7f8a b1bc
0.017254742 0.16913247 -0.041398615 0.08018019 -0.54083544 -0.5220558 0.1811688 -0.10908953
0.2325849 -0.0018565821 0.23877908 0.07809076 -0.3409617 -0.4450212 0.086714014 0.15521064
0.12079303 -0.5314407 -0.35944122 -0.501002 -0.36738524 -0.5147777 0.104435354 0.014434762
0.22018833 -0.021878634 0.18237822 -0.37688655 0.20353834 0.11938745 0.14274251 0.07264756
0.02768168 -0.25203595 -0.16196126 -0.15555328 0.07623378 0.06378465 -0.02616171 -0.05712406
0.12328981 -0.05624342 -0.15594828 0.22561155 0.09718073 0.11922483 0.12026746 -0.1607124
-0.16041605 0.14040643 0.030786015 0.08700898 -0.06399388 -0.091936134 0.11410646 -0.03577971
0.06096531 -0.13708594 -0.10823653 0.07392588 -0.0682754 -0.009337391 -0.13225967 -0.18156072
-0.4119612 0.059783068 0.11731865 -0.108650535 0.03422171 0.07253323 -0.047842667 0.13180707
-0.20966573 -0.3658967 0.121543825 -0.23231447 0.17344725 0.028616875 -0.1978158 0.06735753
0.051701624 0.12773924 -0.0063851904 0.09962552 0.0659058 0.010137797 -0.23053314 -0.3290442
-0.23406455 -0.2374548 0.06699908 0.032186866 -0.084133394 -0.23286738 0.09623023 -0.021672485

output.linear.bias f4 [3]
00000000: 9a7b d7bd e65d 5cbd cd40 cf3d
-0.10521622 -0.053800486 0.10119782
